…
  - test for ele: (202, 461) (202, 2) (202, 4)
  - test for kit: (202, 461) (202, 2) (202, 4)
loading word embeddings from glove
loading glove from /home/peteryuan/datasets/glove/glove.6B.300d.txt
glove info: 35088 words, 300 dims
processing embedding matrix

building the model
____________________________________________________________________________________________________
Layer (type)                     Output Shape          Param #     Connected to                     
====================================================================================================
input_1 (InputLayer)             (None, 461)           0                                            
____________________________________________________________________________________________________
embedding_1 (Embedding)          (None, 461, 300)      13725300    input_1[0][0]                    
____________________________________________________________________________________________________
spatial_dropout1d_1 (SpatialDrop (None, 461, 300)      0           embedding_1[0][0]                
____________________________________________________________________________________________________
bidirectional_1 (Bidirectional)  (None, 600)           1442400     spatial_dropout1d_1[0][0]        
____________________________________________________________________________________________________
bidirectional_2 (Bidirectional)  (None, 461, 600)      1442400     spatial_dropout1d_1[0][0]        
____________________________________________________________________________________________________
dense_1 (Dense)                  (None, 100)           60100       bidirectional_1[0][0]            
____________________________________________________________________________________________________
time_distributed_1 (TimeDistribu (None, 461, 100)      60100       bidirectional_2[0][0]            
____________________________________________________________________________________________________
dropout_1 (Dropout)              (None, 100)           0           dense_1[0][0]                    
____________________________________________________________________________________________________
dot_1 (Dot)                      (None, 461)           0           time_distributed_1[0][0]         
                                                                   dropout_1[0][0]                  
____________________________________________________________________________________________________
activation_1 (Activation)        (None, 461)           0           dot_1[0][0]                      
____________________________________________________________________________________________________
dot_2 (Dot)                      (None, 600)           0           bidirectional_2[0][0]            
                                                                   activation_1[0][0]               
____________________________________________________________________________________________________
dense_3 (Dense)                  (None, 100)           60100       dot_2[0][0]                      
____________________________________________________________________________________________________
dropout_2 (Dropout)              (None, 100)           0           dense_3[0][0]                    
____________________________________________________________________________________________________
s_pred (Dense)                   (None, 2)             202         dropout_2[0][0]                  
____________________________________________________________________________________________________
d_pred (Dense)                   (None, 4)             404         dropout_1[0][0]                  
====================================================================================================
Total params: 16,791,006
Trainable params: 16,791,006
Non-trainable params: 0
____________________________________________________________________________________________________

training model
Train on 5600 samples, validate on 1592 samples
Epoch 1/100
- updates: 1e-3 * [-, -, -, -, -, -, -, -, -, -, -, -, -, -, -]
…
